models/edge-impulse/tflite-model/tflite_learn_863537_3.tflite (tflite, 56552 bytes, 21 tensors)

model_1/logits/Conv2D i1 [2, 1, 1, 32]
73 -48 -57 123 -62 -3 -45 60
127 -42 -50 -5 -26 62 -40 33
97 -73 -50 -97 93 81 76 -66
-53 -75 -54 71 9 -76 -1 71
53 78 77 -76 -79 80 -9 15
-41 -30 40 101 118 46 32 -1
-41 2 -77 -93 -80 34 33 109
82 71 -49 -5 105 -110 -127 -19
00000000: 49d0 c77b c2fd d33c 7fd6 cefb e63e d821
00000010: 61b7 ce9f 5d51 4cbe cbb5 ca47 09b4 ff47
00000020: 354e 4db4 b150 f70f d7e2 2865 762e 20ff
00000030: d702 b3a3 b022 216d 5247 cffb 6992 81ed

model_1/head/Conv2D i1 [32, 1, 1, 96]
-35 -63 80 3 76 -18 -88 -102
52 -111 -107 -5 45 5 -40 47
-57 -37 -79 -62 -70 -104 -2 101
-127 3 68 -65 96 -3 -26 -80
66 -65 -90 43 -111 -79 -89 21
68 -87 -102 95 40 -108 102 -22
7 -74 -34 95 -87 -53 -96 94
26 61 101 -108 -77 60 -49 25
-8 13 61 82 38 80 81 -115
92 -111 27 68 -101 7 -63 13
47 10 85 -9 -61 -42 -87 100
24 107 -27 -119 10 56 27 3
-49 30 -93 5 -51 77 45 17
89 -101 -98 105 82 -19 30 74
113 -37 8 127 -41 -1 41 35
23 27 -38 83 5 16 106 -57
47 114 -2 23 52 70 -5 -59
-56 13 -19 -91 -32 45 -22 -50
-24 -117 127 70 -4 95 -74 -46
35 109 44 91 -50 92 -60 -100
-48 44 82 49 118 28 20 18
-112 98 -60 42 95 -43 -36 62
-74 93 -45 -109 35 125 -64 -57
89 90 73 34 95 97 38 -17
56 35 -81 103 -30 -63 97 104
-94 91 -28 117 106 -8 90 -106
-56 -22 5 62 -91 -10 117 29
-36 90 110 -17 -75 92 87 105
-83 -12 -87 -115 -88 104 117 -21
-111 -71 19 1 -82 127 -17 -74
102 8 102 -80 -62 74 28 23
-64 104 -69 11 -8 36 -28 51
00000000: ddc1 5003 4cee a89a 3491 95fb 2d05 d82f
00000010: c7db b1c2 ba98 fe65 8103 44bf 60fd e6b0
00000020: 42bf a62b 91b1 a715 44a9 9a5f 2894 66ea
00000030: 07b6 de5f a9cb a05e 1a3d 6594 b33c cf19
00000040: f80d 3d52 2650 518d 5c91 1b44 9b07 c10d
00000050: 2f0a 55f7 c3d6 a964 186b e589 0a38 1b03
00000060: cf1e a305 cd4d 2d11 599b 9e69 52ed 1e4a
00000070: 71db 087f d7ff 2923 171b da53 0510 6ac7
00000080: 2f72 fe17 3446 fbc5 c80d eda5 e02d eace
00000090: e88b 7f46 fc5f b6d2 236d 2c5b ce5c c49c
000000a0: d02c 5231 761c 1412 9062 c42a 5fd5 dc3e
000000b0: b65d d393 237d c0c7 595a 4922 5f61 26ef
000000c0: 3823 af67 e2c1 6168 a25b e475 6af8 5a96
000000d0: c8ea 053e a5f6 751d dc5a 6eef b55c 5769
000000e0: adf4 a98d a868 75eb 91b9 1301 ae7f efb6
000000f0: 6608 66b0 c24a 1c17 c068 bb0b f824 e433

model_1/block_6_expand/Conv2D i1 [96, 1, 1, 16]
-21 83 6 -127 -33 -34 -20 -54
-25 24 3 65 21 -61 -14 55
-44 23 -62 0 -24 -27 22 -84
65 46 -57 24 7 6 42 -127
9 2 -63 42 29 15 -83 -93
127 -63 6 32 4 101 -48 17
51 -60 5 -110 6 -38 6 -1
93 9 58 28 6 31 9 127
-80 45 10 36 3 -18 -2 44
0 17 15 -28 -127 -19 -17 30
2 68 123 11 22 86 -80 85
-48 68 -16 -26 30 -37 -127 16
35 -56 108 -127 33 -8 -28 90
-80 -81 39 -43 11 76 -23 86
46 120 -26 -72 100 7 19 -47
127 115 -43 12 31 -34 53 57
7 -80 12 -79 24 -50 13 -70
28 56 73 -4 11 127 77 53
7 -28 -14 127 42 -9 42 -65
-62 102 36 -23 1 -64 -3 -6
-2 38 -42 -127 3 0 16 53
26 -32 9 -44 -19 -51 -9 51
7 19 21 -25 86 -37 96 -65
-93 46 -9 25 4 127 -77 -29
70 -11 -127 -38 36 -108 52 14
2 56 -84 -71 -30 123 0 61
-15 5 -26 8 4 -127 0 20
2 -8 3 -3 13 -17 7 13
36 -35 98 -44 62 -4 -127 -99
-30 -38 24 9 20 -77 -19 -24
-78 17 -24 -54 -11 -3 127 50
-43 55 67 -35 -1 75 70 5
00000000: eb53 0681 dfde ecca e718 0341 15c3 f237
00000010: d417 c200 e8e5 16ac 412e c718 0706 2a81
00000020: 0902 c12a 1d0f ada3 7fc1 0620 0465 d011
00000030: 33c4 0592 06da 06ff 5d09 3a1c 061f 097f
00000040: b02d 0a24 03ee fe2c 0011 0fe4 81ed ef1e
00000050: 0244 7b0b 1656 b055 d044 f0e6 1edb 8110
00000060: 23c8 6c81 21f8 e45a b0af 27d5 0b4c e956
00000070: 2e78 e6b8 6407 13d1 7f73 d50c 1fde 3539
00000080: 07b0 0cb1 18ce 0dba 1c38 49fc 0b7f 4d35
00000090: 07e4 f27f 2af7 2abf c266 24e9 01c0 fdfa
000000a0: fe26 d681 0300 1035 1ae0 09d4 edcd f733
000000b0: 0713 15e7 56db 60bf a32e f719 047f b3e3
000000c0: 46f5 81da 2494 340e 0238 acb9 e27b 003d
000000d0: f105 e608 0481 0014 02f8 03fd 0def 070d
000000e0: 24dd 62d4 3efc 819d e2da 1809 14b3 ede8
000000f0: b211 e8ca f5fd 7f32 d537 43dd ff4b 4605

model_1/block_5_project/Conv2D i1 [16, 1, 1, 96]
-15 -15 4 -30 14 -4 -42 4
17 2 -14 1 -9 -11 -24 4
-7 4 -5 1 8 -29 3 5
2 8 5 127 29 -38 39 -12
2 3 1 0 -8 11 -36 -7
-9 2 -3 39 9 17 7 8
21 -2 -4 10 15 -17 -13 82
7 10 -30 -32 -3 26 -4 -27
-43 -61 -24 34 4 12 17 -11
-4 -31 -6 -26 -28 14 5 2
-11 -29 24 18 -5 -10 -9 -94
0 -17 7 -7 43 -30 -36 -15
42 -83 -79 -54 127 -8 55 47
-20 -97 -67 -23 -3 -10 -57 38
-80 10 42 54 17 42 -23 -54
8 -16 -9 -71 29 -27 -58 35
-15 34 -11 5 3 -12 6 13
-32 27 -53 -15 -35 103 5 17
20 -86 19 -34 -26 49 47 20
-49 -16 -46 -30 23 -18 -7 -51
-92 116 -34 -29 -12 -23 -20 19
64 -118 -38 3 28 -62 52 -2
-1 -36 24 -4 -61 34 -14 19
28 -51 5 5 23 19 41 96
-1 43 -92 -5 79 84 18 70
-7 -99 -12 -21 -18 -6 31 22
5 -12 -43 71 33 3 75 12
47 12 -11 -46 27 -19 38 -56
35 39 -33 25 -127 -84 14 18
11 -58 7 -15 26 -22 -1 75
-40 22 -21 -11 87 -2 -7 60
31 15 22 8 25 24 23 -31
00000000: f1f1 04e2 0efc d604 1102 f201 f7f5 e804
00000010: f904 fb01 08e3 0305 0208 057f 1dda 27f4
00000020: 0203 0100 f80b dcf9 f702 fd27 0911 0708
00000030: 15fe fc0a 0fef f352 070a e2e0 fd1a fce5
00000040: d5c3 e822 040c 11f5 fce1 fae6 e40e 0502
00000050: f5e3 1812 fbf6 f7a2 00ef 07f9 2be2 dcf1
00000060: 2aad b1ca 7ff8 372f ec9f bde9 fdf6 c726
00000070: b00a 2a36 112a e9ca 08f0 f7b9 1de5 c623
00000080: f122 f505 03f4 060d e01b cbf1 dd67 0511
00000090: 14aa 13de e631 2f14 cff0 d2e2 17ee f9cd
000000a0: a474 dee3 f4e9 ec13 408a da03 1cc2 34fe
000000b0: ffdc 18fc c322 f213 1ccd 0505 1713 2960
000000c0: ff2b a4fb 4f54 1246 f99d f4eb eefa 1f16
000000d0: 05f4 d547 2103 4b0c 2f0c f5d2 1bed 26c8
000000e0: 2327 df19 81ac 0e12 0bc6 07f1 1aea ff4b
000000f0: d816 ebf5 57fe f93c 1f0f 1608 1918 17e1

model_1/block_5_depthwise_BN/FusedBatchNormV3;model_1/block_5_depthwise/depthwise;model_1/block_6_expand/Conv2D i1 [1, 3, 3, 96]
-47 -72 -11 127 22 72 75 -60
-15 -18 -14 -6 -30 -1 37 1
-10 -45 26 22 18 -127 127 6
-79 7 50 -28 -126 -127 40 23
13 28 62 -18 -30 -11 30 -6
-12 27 -107 70 25 -66 38 45
-18 52 -25 20 3 -6 16 49
-91 -49 -63 -19 -10 1 12 37
69 -25 71 13 -8 17 19 127
24 22 26 -1 -11 17 127 -7
-14 14 -28 20 124 19 -78 -18
-2 -32 -14 -37 3 -25 -15 26
127 -127 74 105 -42 127 37 -120
69 4 -17 127 127 -99 -13 15
12 127 127 -110 127 -78 81 68
-127 -114 -66 -34 -57 46 -59 -21
-89 53 -127 -85 -42 -14 -53 58
1 127 127 82 -52 -111 -111 -49
-15 -127 42 85 66 -31 44 83
-49 41 -81 -114 -45 -40 -61 67
74 -61 24 29 -81 33 -17 91
118 127 13 19 1 59 -33 51
64 127 127 -23 -9 75 -112 127
-123 -101 6 -127 -87 -127 -38 105
-75 -13 29 -84 15 -26 64 -8
80 -35 -27 17 -20 -6 -9 -13
-9 -17 7 -3 -22 -103 28 -1
-119 96 7 -55 119 49 -14 8
1 13 15 -29 -8 34 18 12
25 12 -114 64 17 -18 37 14
-14 11 -17 5 -10 2 -3 21
-65 6 -35 52 2 41 34 -1
00000000: d1b8 f57f 1648 4bc4 f1ee f2fa e2ff 2501
00000010: f6d3 1a16 1281 7f06 b107 32e4 8281 2817
00000020: 0d1c 3eee e2f5 1efa f41b 9546 19be 262d
00000030: ee34 e714 03fa 1031 a5cf c1ed f601 0c25
00000040: 45e7 470d f811 137f 1816 1aff f511 7ff9
00000050: f20e e414 7c13 b2ee fee0 f2db 03e7 f11a
00000060: 7f81 4a69 d67f 2588 4504 ef7f 7f9d f30f
00000070: 0c7f 7f92 7fb2 5144 818e bede c72e c5eb
00000080: a735 81ab d6f2 cb3a 017f 7f52 cc91 91cf
00000090: f181 2a55 42e1 2c53 cf29 af8e d3d8 c343
000000a0: 4ac3 181d af21 ef5b 767f 0d13 013b df33
000000b0: 407f 7fe9 f74b 907f 859b 0681 a981 da69
000000c0: b5f3 1dac 0fe6 40f8 50dd e511 ecfa f7f3
000000d0: f7ef 07fd ea99 1cff 8960 07c9 7731 f208
000000e0: 010d 0fe3 f822 120c 190c 8e40 11ee 250e
000000f0: f20b ef05 f602 fd15 bf06 dd34 0229 22ff

model_1/block_5_expand/Conv2D i1 [96, 1, 1, 16]
8 61 -14 73 34 24 2 -5
39 24 -61 113 0 -115 52 -127
25 60 0 -16 37 -26 127 -104
9 98 -20 -8 -5 -49 20 6
-127 21 -29 -23 -19 4 61 104
-32 60 111 -38 -72 21 23 -56
-49 43 55 44 -60 48 79 127
-2 51 -90 -10 52 -74 -91 -53
11 0 30 76 -27 75 4 55
14 -10 -5 2 26 3 -127 -28
-4 -37 67 -17 13 -20 -10 36
-66 108 -40 -127 -15 32 -64 -30
22 -5 25 -17 31 48 -57 -63
-14 1 53 -21 127 -30 -8 -24
16 16 127 -7 -13 -28 5 -11
-71 29 -78 -38 6 -8 35 -19
32 37 76 75 -54 84 34 42
51 11 29 -90 -42 13 -127 -86
27 -123 74 61 28 -24 -15 8
127 -12 103 23 -40 -6 -126 -49
-58 -115 19 -11 -95 12 -28 67
116 127 56 -40 -33 80 78 4
67 -36 12 -120 2 -41 -127 -124
-54 36 -11 -27 29 -14 48 -62
-11 14 20 -28 -23 -30 -98 -12
-40 -67 -33 19 13 127 75 32
-28 -86 -74 24 -1 -75 11 -28
44 19 -1 -25 33 12 127 34
7 -64 61 18 25 27 23 127
11 49 16 -41 20 40 -56 125
22 -36 0 57 10 -1 96 5
6 -127 13 -32 1 -19 1 -31
00000000: 083d f249 2218 02fb 2718 c371 008d 3481
00000010: 193c 00f0 25e6 7f98 0962 ecf8 fbcf 1406
00000020: 8115 e3e9 ed04 3d68 e03c 6fda b815 17c8
00000030: cf2b 372c c430 4f7f fe33 a6f6 34b6 a5cb
00000040: 0b00 1e4c e54b 0437 0ef6 fb02 1a03 81e4
00000050: fcdb 43ef 0dec f624 be6c d881 f120 c0e2
00000060: 16fb 19ef 1f30 c7c1 f201 35eb 7fe2 f8e8
00000070: 1010 7ff9 f3e4 05f5 b91d b2da 06f8 23ed
00000080: 2025 4c4b ca54 222a 330b 1da6 d60d 81aa
00000090: 1b85 4a3d 1ce8 f108 7ff4 6717 d8fa 82cf
000000a0: c68d 13f5 a10c e443 747f 38d8 df50 4e04
000000b0: 43dc 0c88 02d7 8184 ca24 f5e5 1df2 30c2
000000c0: f50e 14e4 e9e2 9ef4 d8bd df13 0d7f 4b20
000000d0: e4aa b618 ffb5 0be4 2c13 ffe7 210c 7f22
000000e0: 07c0 3d12 191b 177f 0b31 10d7 1428 c87d
000000f0: 16dc 0039 0aff 6005 0681 0de0 01ed 01e1

model_1/block_4_project/Conv2D i1 [16, 1, 1, 96]
0 14 -3 16 48 61 -31 -29
46 1 14 5 -12 19 19 68
0 -12 -4 -7 100 -51 3 -15
-21 -30 -50 -96 -8 -7 44 52
121 -5 11 -3 3 -17 -15 11
-33 10 19 -36 9 -30 -19 26
-10 18 -3 -5 -34 -12 5 1
38 21 -21 -20 -56 30 -16 -11
15 9 59 1 13 -3 7 -31
-56 4 2 1 -3 -81 9 -28
35 -22 -60 -40 28 -12 4 20
-2 3 22 -34 27 18 -11 127
72 -103 51 79 -3 -64 -20 -57
-37 -86 -9 35 2 -76 -46 -68
-96 -17 21 31 -28 -120 -52 21
127 -71 -83 17 -21 108 -23 55
-3 6 -51 17 -14 1 63 -17
10 -84 86 -42 -65 9 53 2
48 15 -7 -65 75 -73 33 -29
33 21 -25 -113 42 -75 15 -55
11 -84 27 39 38 56 -51 -9
-92 49 -22 78 51 92 26 -35
41 -3 -80 47 -84 76 -14 63
-55 7 11 11 14 -53 34 -6
25 19 18 -39 4 -13 -13 33
52 -17 17 73 -10 3 40 -6
-18 -22 15 -2 -13 -57 4 -62
-3 -16 -37 18 -5 25 126 -62
9 -75 -23 59 12 127 -32 -18
6 -17 -10 32 -42 -50 -67 24
35 35 -41 -30 33 -4 -8 -25
-24 -3 -3 21 -4 10 70 89
00000000: 000e fd10 303d e1e3 2e01 0e05 f413 1344
00000010: 00f4 fcf9 64cd 03f1 ebe2 cea0 f8f9 2c34
00000020: 79fb 0bfd 03ef f10b df0a 13dc 09e2 ed1a
00000030: f612 fdfb def4 0501 2615 ebec c81e f0f5
00000040: 0f09 3b01 0dfd 07e1 c804 0201 fdaf 09e4
00000050: 23ea c4d8 1cf4 0414 fe03 16de 1b12 f57f
00000060: 4899 334f fdc0 ecc7 dbaa f723 02b4 d2bc
00000070: a0ef 151f e488 cc15 7fb9 ad11 eb6c e937
00000080: fd06 cd11 f201 3fef 0aac 56d6 bf09 3502
00000090: 300f f9bf 4bb7 21e3 2115 e78f 2ab5 0fc9
000000a0: 0bac 1b27 2638 cdf7 a431 ea4e 335c 1add
000000b0: 29fd b02f ac4c f23f c907 0b0b 0ecb 22fa
000000c0: 1913 12d9 04f3 f321 34ef 1149 f603 28fa
000000d0: eeea 0ffe f3c7 04c2 fdf0 db12 fb19 7ec2
000000e0: 09b5 e93b 0c7f e0ee 06ef f620 d6ce bd18
000000f0: 2323 d7e2 21fc f8e7 e8fd fd15 fc0a 4659

model_1/block_4_depthwise_BN/FusedBatchNormV3;model_1/block_4_depthwise/depthwise;model_1/block_6_expand/Conv2D i1 [1, 3, 3, 96]
-18 6 -20 105 -16 22 -63 -54
17 -7 101 -10 4 -8 -4 52
5 15 -34 4 72 3 31 -33
2 17 43 49 21 12 23 49
-7 27 10 -15 5 49 -58 -27
21 9 27 17 -85 -55 26 -5
-11 -19 -8 -7 49 5 -10 1
-2 -35 28 -31 26 -2 127 27
-12 -11 12 -52 67 36 2 -7
78 -34 70 5 16 -127 29 65
1 15 127 -14 38 30 -27 -19
35 -6 -13 80 2 20 -1 12
-49 13 -8 9 52 -8 -11 -127
39 13 -127 -5 -18 -10 5 90
19 -31 -15 -15 76 -97 127 25
-62 -31 -105 -16 27 35 -49 18
118 12 -14 -1 -23 127 -62 -127
9 -19 -30 14 47 -127 127 -44
-77 50 50 7 38 -65 30 56
37 41 -100 84 127 35 4 -20
43 -38 -95 -2 37 -30 -19 46
-47 -50 107 -3 -30 -60 -34 64
-67 62 -16 9 -10 48 54 -42
-27 53 -12 71 -127 -30 24 -127
0 -4 -23 -76 8 17 37 22
-3 -2 6 62 1 -12 -11 5
-12 16 -18 17 5 25 23 -31
1 -31 9 11 -8 5 45 -80
44 17 8 -23 13 4 -29 -21
8 3 -16 7 22 -31 20 1
7 -7 6 -5 5 5 -6 8
-7 44 7 -2 10 -18 4 -16
00000000: ee06 ec69 f016 c1ca 11f9 65f6 04f8 fc34
00000010: 050f de04 4803 1fdf 0211 2b31 150c 1731
00000020: f91b 0af1 0531 c6e5 1509 1b11 abc9 1afb
00000030: f5ed f8f9 3105 f601 fedd 1ce1 1afe 7f1b
00000040: f4f5 0ccc 4324 02f9 4ede 4605 1081 1d41
00000050: 010f 7ff2 261e e5ed 23fa f350 0214 ff0c
00000060: cf0d f809 34f8 f581 270d 81fb eef6 055a
00000070: 13e1 f1f1 4c9f 7f19 c2e1 97f0 1b23 cf12
00000080: 760c f2ff e97f c281 09ed e20e 2f81 7fd4
00000090: b332 3207 26bf 1e38 2529 9c54 7f23 04ec
000000a0: 2bda a1fe 25e2 ed2e d1ce 6bfd e2c4 de40
000000b0: bd3e f009 f630 36d6 e535 f447 81e2 1881
000000c0: 00fc e9b4 0811 2516 fdfe 063e 01f4 f505
000000d0: f410 ee11 0519 17e1 01e1 090b f805 2db0
000000e0: 2c11 08e9 0d04 e3eb 0803 f007 16e1 1401
000000f0: 07f9 06fb 0505 fa08 f92c 07fe 0aee 04f0

model_1/block_4_expand/Conv2D i1 [96, 1, 1, 16]
55 -32 127 99 60 -26 25 -23
114 -24 -58 -76 31 87 -43 -78
44 66 4 -8 110 -17 2 36
59 69 -31 127 8 -29 109 -101
31 -78 -11 -4 -60 28 -54 86
-83 -92 18 64 9 -127 83 -88
123 127 -16 28 -126 -21 -66 -36
-5 -15 105 -73 -59 84 -42 -29
-6 -2 24 14 -18 36 -7 43
-55 -26 -1 3 2 -127 31 5
117 -38 -20 -3 -13 -127 -35 8
-7 2 -121 -2 22 -6 -15 29
-111 -93 5 113 -40 -6 -63 39
-127 -88 -97 -36 10 65 -8 90
-18 19 -68 43 45 -127 -32 32
3 -35 19 1 -8 10 -29 9
37 -47 -5 -6 19 28 -65 -67
-6 7 -77 15 -127 6 -1 18
10 -38 48 116 -10 36 7 -57
127 -73 16 -30 0 59 -75 28
-127 -56 -2 -36 86 40 19 33
83 -71 -86 29 62 -93 -113 55
46 -10 -127 24 45 34 -11 53
-5 -29 -20 -11 -10 31 -47 1
127 -68 11 -4 -8 -66 -65 -27
35 -10 -125 -20 -52 -19 8 65
17 -42 -10 -53 42 -25 -47 -127
7 -15 21 -11 52 -54 -3 31
-62 37 -102 -50 83 -127 68 -63
65 53 -11 -103 16 118 -16 28
23 2 65 33 32 -44 -48 -9
9 -69 -71 -16 -127 -47 -7 58
00000000: 37e0 7f63 3ce6 19e9 72e8 c6b4 1f57 d5b2
00000010: 2c42 04f8 6eef 0224 3b45 e17f 08e3 6d9b
00000020: 1fb2 f5fc c41c ca56 ada4 1240 0981 53a8
00000030: 7b7f f01c 82eb bedc fbf1 69b7 c554 d6e3
00000040: fafe 180e ee24 f92b c9e6 ff03 0281 1f05
00000050: 75da ecfd f381 dd08 f902 87fe 16fa f11d
00000060: 91a3 0571 d8fa c127 81a8 9fdc 0a41 f85a
00000070: ee13 bc2b 2d81 e020 03dd 1301 f80a e309
00000080: 25d1 fbfa 131c bfbd fa07 b30f 8106 ff12
00000090: 0ada 3074 f624 07c7 7fb7 10e2 003b b51c
000000a0: 81c8 fedc 5628 1321 53b9 aa1d 3ea3 8f37
000000b0: 2ef6 8118 2d22 f535 fbe3 ecf5 f61f d101
000000c0: 7fbc 0bfc f8be bfe5 23f6 83ec cced 0841
000000d0: 11d6 f6cb 2ae7 d181 07f1 15f5 34ca fd1f
000000e0: c225 9ace 5381 44c1 4135 f599 1076 f01c
000000f0: 1702 4121 20d4 d0f7 09bb b9f0 81d1 f93a

model_1/block_3_project/Conv2D i1 [16, 1, 1, 48]
-19 -6 -24 13 27 -3 6 103
-46 14 39 -1 20 -20 -10 16
17 -16 -5 -1 66 -6 22 127
-17 89 -7 -15 31 -18 26 -20
-14 53 19 -54 13 43 17 -10
-103 -20 13 40 33 26 -120 -54
-35 -17 25 18 -29 8 4 55
-57 -39 2 -48 -19 -21 3 0
-23 119 -7 19 10 6 -25 -13
24 -39 14 21 -25 -91 -35 23
-25 -1 36 1 0 -45 -2 21
-16 -36 127 15 7 -2 23 -16
-24 -9 -17 -33 1 -69 9 -20
5 10 16 29 17 12 -11 11
-2 -24 -23 -11 -3 -1 0 -127
-13 78 -16 2 -2 -21 -1 -2
-7 53 15 -2 23 7 27 0
-43 7 -22 -9 -4 -7 16 5
-9 31 3 -30 0 1 1 -2
-20 -1 3 40 -127 11 -6 -1
-2 6 -16 -4 -29 9 6 15
-8 -10 1 26 -8 21 4 13
4 1 15 19 -11 25 43 5
9 7 22 -31 7 -6 4 18
35 -31 12 10 19 27 21 -23
-31 5 -12 -17 1 14 1 18
18 -4 -78 6 -8 14 14 71
0 -24 5 48 11 -71 17 4
13 -34 30 -127 10 38 -1 15
-18 19 10 -25 -9 -24 6 7
28 2 -18 57 1 -4 5 27
2 -1 43 11 1 55 -1 2
00000000: edfa e80d 1bfd 0667 d20e 27ff 14ec f610
00000010: 11f0 fbff 42fa 167f ef59 f9f1 1fee 1aec
00000020: f235 13ca 0d2b 11f6 99ec 0d28 211a 88ca
00000030: ddef 1912 e308 0437 c7d9 02d0 edeb 0300
00000040: e977 f913 0a06 e7f3 18d9 0e15 e7a5 dd17
00000050: e7ff 2401 00d3 fe15 f0dc 7f0f 07fe 17f0
00000060: e8f7 efdf 01bb 09ec 050a 101d 110c f50b
00000070: fee8 e9f5 fdff 0081 f34e f002 feeb fffe
00000080: f935 0ffe 1707 1b00 d507 eaf7 fcf9 1005
00000090: f71f 03e2 0001 01fe ecff 0328 810b faff
000000a0: fe06 f0fc e309 060f f8f6 011a f815 040d
000000b0: 0401 0f13 f519 2b05 0907 16e1 07fa 0412
000000c0: 23e1 0c0a 131b 15e9 e105 f4ef 010e 0112
000000d0: 12fc b206 f80e 0e47 00e8 0530 0bb9 1104
000000e0: 0dde 1e81 0a26 ff0f ee13 0ae7 f7e8 0607
000000f0: 1c02 ee39 01fc 051b 02ff 2b0b 0137 ff02

model_1/block_3_depthwise_BN/FusedBatchNormV3;model_1/block_3_depthwise/depthwise i1 [1, 3, 3, 48]
68 -90 97 69 53 -34 106 -64
58 -87 -78 47 51 -41 -71 -89
100 78 49 78 66 -74 -83 50
-32 -40 -64 -63 -67 61 -63 -114
-13 40 69 63 -64 52 -50 -23
50 -73 58 62 -95 11 76 -34
82 -95 127 86 -78 -68 -56 -84
95 -101 -63 73 79 -110 -95 93
-38 95 82 127 85 -115 53 71
-52 -78 -68 -79 56 79 -29 -127
-85 78 81 83 -81 82 -83 -16
75 -94 84 89 -73 -127 93 -102
34 -44 69 37 18 -42 -46 -38
42 -31 6 33 29 -80 -55 -1
-53 36 35 69 33 -54 30 25
-28 -45 -45 -21 31 31 88 -89
-83 44 35 33 -29 38 -37 -11
41 -39 35 43 -5 -9 36 -72
92 -110 -42 94 56 -82 127 -89
86 -113 -72 82 83 -110 -13 -127
127 108 74 -38 82 108 -127 71
73 -76 -93 -100 -127 86 -70 -9
-88 70 106 96 -85 78 -80 89
84 -100 87 91 -89 107 94 -92
127 -127 -64 127 -127 -127 -89 -127
127 -127 -127 127 127 -127 -21 98
-64 127 127 -50 127 127 69 127
127 -127 -127 -127 54 127 -29 15
-127 127 127 127 -127 127 -127 127
127 -127 127 127 -127 -11 127 -127
62 -76 -34 65 37 -63 -47 -62
56 -41 -59 57 49 -55 -17 11
00000000: 44a6 6145 35de 6ac0 3aa9 b22f 33d7 b9a7
00000010: 644e 314e 42b6 ad32 e0d8 c0c1 bd3d c18e
00000020: f328 453f c034 cee9 32b7 3a3e a10b 4cde
00000030: 52a1 7f56 b2bc c8ac 5f9b c149 4f92 a15d
00000040: da5f 527f 558d 3547 ccb2 bcb1 384f e381
00000050: ab4e 5153 af52 adf0 4ba2 5459 b781 5d9a
00000060: 22d4 4525 12d6 d2da 2ae1 0621 1db0 c9ff
00000070: cb24 2345 21ca 1e19 e4d3 d3eb 1f1f 58a7
00000080: ad2c 2321 e326 dbf5 29d9 232b fbf7 24b8
00000090: 5c92 d65e 38ae 7fa7 568f b852 5392 f381
000000a0: 7f6c 4ada 526c 8147 49b4 a39c 8156 baf7
000000b0: a846 6a60 ab4e b059 549c 575b a76b 5ea4
000000c0: 7f81 c07f 8181 a781 7f81 817f 7f81 eb62
000000d0: c07f 7fce 7f7f 457f 7f81 8181 367f e30f
000000e0: 817f 7f7f 817f 817f 7f81 7f7f 81f5 7f81
000000f0: 3eb4 de41 25c1 d1c2 38d7 c539 31c9 ef0b

model_1/block_3_expand/Conv2D i1 [48, 1, 1, 8]
-127 2 -4 71 -37 46 21 -33
32 78 54 11 27 -36 103 127
-38 -1 -5 -5 -127 -10 5 2
89 2 -16 -112 -127 21 29 -22
-127 36 -8 -19 75 -5 36 12
-95 -24 19 -13 -127 13 6 79
-25 -127 36 -10 12 -4 5 39
-74 -8 8 112 127 -38 -31 10
71 9 -1 -127 6 -18 -51 -40
-3 -127 -6 -6 7 93 -56 84
-109 -10 -2 18 -127 85 60 -23
111 14 43 9 -56 -43 -35 -127
-3 11 49 -11 12 -78 127 69
58 -33 -12 -8 127 117 123 -35
127 65 -3 25 -86 -25 -21 -17
-22 -127 24 -16 9 1 5 41
-62 -22 12 4 -127 5 8 6
-21 99 -106 5 12 -127 109 -76
127 -32 -41 11 -66 22 10 104
127 -42 -28 -3 45 -8 38 12
127 32 -22 118 2 41 -3 -63
7 41 -56 1 -17 78 -127 -89
-127 12 23 1 -28 -4 -40 -15
-45 -56 0 25 -127 63 79 -15
127 -10 -26 -3 -70 -6 0 9
19 -11 -3 -19 127 48 51 -32
3 -92 -2 -31 4 -127 83 -47
-19 -127 23 -16 -1 -53 32 -7
-119 24 -16 14 -6 -19 127 120
-11 48 20 7 2 38 -104 -127
127 -20 -5 2 -79 -5 -35 -21
-1 -28 59 -23 26 -122 127 72
00000000: 8102 fc47 db2e 15df 204e 360b 1bdc 677f
00000010: daff fbfb 81f6 0502 5902 f090 8115 1dea
00000020: 8124 f8ed 4bfb 240c a1e8 13f3 810d 064f
00000030: e781 24f6 0cfc 0527 b6f8 0870 7fda e10a
00000040: 4709 ff81 06ee cdd8 fd81 fafa 075d c854
00000050: 93f6 fe12 8155 3ce9 6f0e 2b09 c8d5 dd81
00000060: fd0b 31f5 0cb2 7f45 3adf f4f8 7f75 7bdd
00000070: 7f41 fd19 aae7 ebef ea81 18f0 0901 0529
00000080: c2ea 0c04 8105 0806 eb63 9605 0c81 6db4
00000090: 7fe0 d70b be16 0a68 7fd6 e4fd 2df8 260c
000000a0: 7f20 ea76 0229 fdc1 0729 c801 ef4e 81a7
000000b0: 810c 1701 e4fc d8f1 d3c8 0019 813f 4ff1
000000c0: 7ff6 e6fd bafa 0009 13f5 fded 7f30 33e0
000000d0: 03a4 fee1 0481 53d1 ed81 17f0 ffcb 20f9
000000e0: 8918 f00e faed 7f78 f530 1407 0226 9881
000000f0: 7fec fb02 b1fb ddeb ffe4 3be9 1a86 7f48

model_1/block_2_project/Conv2D i1 [8, 1, 1, 48]
-54 -14 -41 11 1 -35 3 -3
-114 127 -45 124 117 4 80 -24
-10 -39 7 1 -7 -12 -24 -31
21 -108 18 66 -18 11 15 -46
-7 -85 108 22 -2 -12 -7 -25
116 1 57 -31 -37 32 -10 -26
-5 29 127 2 -5 -29 0 -86
27 0 18 9 -19 10 -1 -120
10 -58 8 2 -29 27 20 -33
-15 -12 13 5 8 -4 15 -5
-7 10 13 12 -14 -37 64 -63
7 40 -7 20 -17 12 30 -5
5 -50 17 -44 34 26 -4 -31
8 1 -1 13 -12 61 3 -5
-37 127 -27 -36 -18 21 -39 -10
125 5 -1 -9 -29 -7 2 -42
-9 -15 3 11 -10 -1 -15 5
14 -17 -23 0 2 26 -25 -41
-3 -83 -1 9 5 -3 -13 -2
-8 -11 15 21 13 -7 49 2
-8 -18 1 20 -6 20 -23 2
8 50 1 8 -9 3 127 0
11 7 -5 1 -18 -13 -8 11
-7 4 -7 27 -6 4 1 32
-99 7 -5 1 0 -42 5 4
41 -35 17 -15 -32 0 -9 -6
9 3 -2 20 6 -31 17 0
-7 40 9 110 4 3 -5 -33
4 -127 -27 12 5 -11 -2 -5
-49 0 -7 12 -52 3 7 9
-21 20 15 4 -49 6 -1 40
20 4 9 10 -6 -44 12 33
00000000: caf2 d70b 01dd 03fd 8e7f d37c 7504 50e8
00000010: f6d9 0701 f9f4 e8e1 1594 1242 ee0b 0fd2
00000020: f9ab 6c16 fef4 f9e7 7401 39e1 db20 f6e6
00000030: fb1d 7f02 fbe3 00aa 1b00 1209 ed0a ff88
00000040: 0ac6 0802 e31b 14df f1f4 0d05 08fc 0ffb
00000050: f90a 0d0c f2db 40c1 0728 f914 ef0c 1efb
00000060: 05ce 11d4 221a fce1 0801 ff0d f43d 03fb
00000070: db7f e5dc ee15 d9f6 7d05 fff7 e3f9 02d6
00000080: f7f1 030b f6ff f105 0eef e900 021a e7d7
00000090: fdad ff09 05fd f3fe f8f5 0f15 0df9 3102
000000a0: f8ee 0114 fa14 e902 0832 0108 f703 7f00
000000b0: 0b07 fb01 eef3 f80b f904 f91b fa04 0120
000000c0: 9d07 fb01 00d6 0504 29dd 11f1 e000 f7fa
000000d0: 0903 fe14 06e1 1100 f928 096e 0403 fbdf
000000e0: 0481 e50c 05f5 fefb cf00 f90c cc03 0709
000000f0: eb14 0f04 cf06 ff28 1404 090a fad4 0c21

model_1/block_2_depthwise_BN/FusedBatchNormV3;model_1/block_2_depthwise/depthwise;model_1/block_3_depthwise/depthwise i1 [1, 3, 3, 48]
5 -3 20 109 4 81 -1 28
16 8 9 7 -8 -9 -46 8
-2 8 -22 -114 -6 -23 127 -10
-3 6 -5 8 -5 4 16 98
20 28 38 -28 1 34 -3 1
18 -67 -9 -8 17 2 -7 -10
127 10 15 -127 28 86 10 10
125 127 7 43 -50 -24 5 8
127 -56 -59 -56 -100 24 -109 15
17 70 -31 -84 23 21 10 -124
5 -62 127 10 -40 -47 -6 115
-78 -96 -30 3 -35 -9 -127 22
-31 -3 7 15 -1 65 4 17
27 8 -14 31 -14 -3 16 3
-103 29 -3 77 -31 -12 -18 -6
-4 -59 -3 28 -17 5 4 -22
7 -24 17 -19 -1 47 41 -13
50 38 -16 11 -43 2 -2 -6
126 6 0 -98 14 -26 34 -16
9 8 -12 53 -6 -1 18 -33
0 -50 -59 -85 10 -73 -124 -18
5 98 -14 -127 -9 32 12 -108
16 -54 -2 127 -3 58 -42 40
-62 -127 39 -87 -45 -15 -13 -5
27 -127 -127 115 -127 -127 -127 -127
-127 -97 127 -127 127 127 35 -127
-83 127 127 -107 127 127 112 127
127 -127 -127 28 -127 -127 93 127
-127 127 -28 -41 127 -127 127 127
127 -79 127 127 127 -122 102 106
54 5 48 -13 5 -60 44 18
-24 14 -104 -8 1 -40 127 4
00000000: 05fd 146d 0451 ff1c 1008 0907 f8f7 d208
00000010: fe08 ea8e fae9 7ff6 fd06 fb08 fb04 1062
00000020: 141c 26e4 0122 fd01 12bd f7f8 1102 f9f6
00000030: 7f0a 0f81 1c56 0a0a 7d7f 072b cee8 0508
00000040: 7fc8 c5c8 9c18 930f 1146 e1ac 1715 0a84
00000050: 05c2 7f0a d8d1 fa73 b2a0 e203 ddf7 8116
00000060: e1fd 070f ff41 0411 1b08 f21f f2fd 1003
00000070: 991d fd4d e1f4 eefa fcc5 fd1c ef05 04ea
00000080: 07e8 11ed ff2f 29f3 3226 f00b d502 fefa
00000090: 7e06 009e 0ee6 22f0 0908 f435 faff 12df
000000a0: 00ce c5ab 0ab7 84ee 0562 f281 f720 0c94
000000b0: 10ca fe7f fd3a d628 c281 27a9 d3f1 f3fb
000000c0: 1b81 8173 8181 8181 819f 7f81 7f7f 2381
000000d0: ad7f 7f95 7f7f 707f 7f81 811c 8181 5d7f
000000e0: 817f e4d7 7f81 7f7f 7fb1 7f7f 7f86 666a
000000f0: 3605 30f3 05c4 2c12 e80e 98f8 01d8 7f04

model_1/block_2_expand/Conv2D i1 [48, 1, 1, 8]
80 28 -7 -16 127 23 -55 -20
-5 -2 2 127 13 -1 6 13
27 -127 -17 42 -1 -63 79 15
127 -25 -4 17 -8 -28 33 5
12 -49 127 -13 -19 -51 8 -92
76 -2 7 6 127 20 -15 -4
-17 84 -16 127 31 57 -61 -58
-3 127 -2 4 -1 -13 13 -3
127 56 -1 7 -48 -28 11 -42
-127 20 9 21 55 16 -13 -3
-68 -11 17 127 39 29 -14 -4
-127 3 6 -63 24 4 -19 -43
127 23 3 16 -42 -7 2 -47
-15 80 -127 -5 11 99 -71 75
-53 -30 -7 127 22 20 -11 -22
-2 127 2 -3 -1 -17 12 -48
-15 -127 -14 6 -3 -118 123 -23
16 127 2 -8 11 87 -97 -23
-7 52 -127 -7 6 55 -34 57
-85 16 1 -2 -127 -3 17 30
-127 -26 1 -7 69 -23 35 2
-70 -9 -7 -4 -127 2 13 4
-127 -33 4 -3 95 -22 39 62
-18 -25 -7 -11 -5 78 -127 -84
-11 41 -127 5 11 46 -18 75
92 -36 3 127 -61 -11 12 -46
-2 -17 -3 0 -8 127 127 -33
64 -13 3 18 127 27 28 -15
3 127 -66 -1 2 78 -36 119
-11 13 -4 -5 -1 94 -127 -90
6 -4 0 -127 -8 -1 -3 -13
-59 9 1 -5 -127 6 14 -5
00000000: 501c f9f0 7f17 c9ec fbfe 027f 0dff 060d
00000010: 1b81 ef2a ffc1 4f0f 7fe7 fc11 f8e4 2105
00000020: 0ccf 7ff3 edcd 08a4 4cfe 0706 7f14 f1fc
00000030: ef54 f07f 1f39 c3c6 fd7f fe04 fff3 0dfd
00000040: 7f38 ff07 d0e4 0bd6 8114 0915 3710 f3fd
00000050: bcf5 117f 271d f2fc 8103 06c1 1804 edd5
00000060: 7f17 0310 d6f9 02d1 f150 81fb 0b63 b94b
00000070: cbe2 f97f 1614 f5ea fe7f 02fd ffef 0cd0
00000080: f181 f206 fd8a 7be9 107f 02f8 0b57 9fe9
00000090: f934 81f9 0637 de39 ab10 01fe 81fd 111e
000000a0: 81e6 01f9 45e9 2302 baf7 f9fc 8102 0d04
000000b0: 81df 04fd 5fea 273e eee7 f9f5 fb4e 81ac
000000c0: f529 8105 0b2e ee4b 5cdc 037f c3f5 0cd2
000000d0: feef fd00 f87f 7fdf 40f3 0312 7f1b 1cf1
000000e0: 037f beff 024e dc77 f50d fcfb ff5e 81a6
000000f0: 06fc 0081 f8ff fdf3 c509 01fb 8106 0efb

model_1/block_1_project/Conv2D i1 [8, 1, 1, 48]
-14 -3 11 -92 9 27 6 8
6 7 0 -6 96 0 -1 5
0 -7 -6 0 77 -3 0 5
30 38 14 13 6 4 2 -127
9 8 -2 -1 -26 1 -16 33
7 -28 -10 5 2 -3 2 1
-37 -10 -2 -8 42 25 -30 74
23 7 -32 -24 13 0 17 35
0 41 18 -46 2 21 127 22
-28 1 55 5 21 -1 18 -12
14 -6 -12 -18 4 -50 12 6
-5 -9 -81 -6 -32 7 -50 -97
-61 13 -3 9 44 -12 30 26
-7 55 9 -6 6 0 7 53
0 11 -127 23 3 13 7 -16
-29 4 39 3 10 29 24 6
8 -4 -13 -12 9 4 6 0
38 -5 -28 -3 26 -59 25 16
0 0 0 11 -6 30 2 -2
65 20 -2 0 28 0 -34 -7
0 0 -9 1 -5 0 5 -18
-12 -3 -10 -5 -5 -3 1 -3
-50 45 -55 -3 10 0 3 -127
1 4 1 -50 -4 -2 -1 7
-2 -4 80 33 2 -19 -3 1
6 -4 0 -11 -80 0 -11 3
0 13 4 -2 70 3 4 -6
-12 35 -4 48 -9 -3 0 105
7 8 -4 -5 17 -15 -12 -21
-5 -127 2 -1 -3 -3 -2 -1
-5 46 5 -5 2 47 24 15
-23 31 7 54 25 0 -127 -2
00000000: f2fd 0ba4 091b 0608 0607 00fa 6000 ff05
00000010: 00f9 fa00 4dfd 0005 1e26 0e0d 0604 0281
00000020: 0908 feff e601 f021 07e4 f605 02fd 0201
00000030: dbf6 fef8 2a19 e24a 1707 e0e8 0d00 1123
00000040: 0029 12d2 0215 7f16 e401 3705 15ff 12f4
00000050: 0efa f4ee 04ce 0c06 fbf7 affa e007 ce9f
00000060: c30d fd09 2cf4 1e1a f937 09fa 0600 0735
00000070: 000b 8117 030d 07f0 e304 2703 0a1d 1806
00000080: 08fc f3f4 0904 0600 26fb e4fd 1ac5 1910
00000090: 0000 000b fa1e 02fe 4114 fe00 1c00 def9
000000a0: 0000 f701 fb00 05ee f4fd f6fb fbfd 01fd
000000b0: ce2d c9fd 0a00 0381 0104 01ce fcfe ff07
000000c0: fefc 5021 02ed fd01 06fc 00f5 b000 f503
000000d0: 000d 04fe 4603 04fa f423 fc30 f7fd 0069
000000e0: 0708 fcfb 11f1 f4eb fb81 02ff fdfd feff
000000f0: fb2e 05fb 022f 180f e91f 0736 1900 81fe

model_1/block_1_depthwise_BN/FusedBatchNormV3;model_1/block_1_depthwise/depthwise;model_1/block_3_depthwise/depthwise i1 [1, 3, 3, 48]
-43 -22 -7 -17 6 -39 -79 -68
-27 -49 9 66 35 -71 114 -42
-113 -85 37 -7 -1 -71 -111 -78
-35 -124 -63 -20 70 15 95 25
-127 -87 -7 54 18 48 -127 78
-77 -14 106 -109 -3 -35 -87 108
75 12 -28 -29 58 -127 -127 -81
60 -76 -117 109 37 -82 -1 62
-52 -112 59 6 11 -112 -127 -68
-5 -127 -119 -39 -54 21 -56 54
29 -127 65 84 13 72 -92 127
-127 6 126 -127 2 -23 -127 95
-32 44 7 -4 -64 -108 -58 -17
87 -8 -127 39 9 -71 -100 -11
-127 -24 27 12 -16 -76 -35 -23
-11 -29 -57 -11 -9 18 -24 8
106 -86 69 31 13 36 -4 16
-79 4 7 -78 -16 5 -55 15
-86 -127 -44 -43 -11 54 98 -105
-27 -107 -21 113 91 -64 27 -96
-121 -94 89 -77 41 -88 -103 -127
42 -118 -78 -37 127 -60 127 83
-43 -83 -14 84 -35 -77 -107 90
42 60 104 -108 -90 -117 82 120
127 -83 -127 -127 127 40 93 -127
100 -127 -111 127 127 -14 -7 127
-60 -127 127 -127 127 -127 -120 -118
127 -99 -127 -127 -119 -127 -70 127
29 -111 127 127 -68 -127 -97 90
61 127 127 -116 -111 -127 126 127
-52 31 -61 -84 -118 -23 31 -38
127 -20 -77 35 56 -70 -25 -43
00000000: d5ea f9ef 06d9 b1bc e5cf 0942 23b9 72d6
00000010: 8fab 25f9 ffb9 91b2 dd84 c1ec 460f 5f19
00000020: 81a9 f936 1230 814e b3f2 6a93 fddd a96c
00000030: 4b0c e4e3 3a81 81af 3cb4 8b6d 25ae ff3e
00000040: cc90 3b06 0b90 81bc fb81 89d9 ca15 c836
00000050: 1d81 4154 0d48 a47f 8106 7e81 02e9 815f
00000060: e02c 07fc c094 c6ef 57f8 8127 09b9 9cf5
00000070: 81e8 1b0c f0b4 dde9 f5e3 c7f5 f712 e808
00000080: 6aaa 451f 0d24 fc10 b104 07b2 f005 c90f
00000090: aa81 d4d5 f536 6297 e595 eb71 5bc0 1ba0
000000a0: 87a2 59b3 29a8 9981 2a8a b2db 7fc4 7f53
000000b0: d5ad f254 ddb3 955a 2a3c 6894 a68b 5278
000000c0: 7fad 8181 7f28 5d81 6481 917f 7ff2 f97f
000000d0: c481 7f81 7f81 888a 7f9d 8181 8981 ba7f
000000e0: 1d91 7f7f bc81 9f5a 3d7f 7f8c 9181 7e7f
000000f0: cc1f c3ac 8ae9 1fda 7fec b323 38ba e7d5

model_1/block_1_expand/Conv2D i1 [48, 1, 1, 8]
18 -127 50 -44 31 -17 -51 23
70 62 -22 -96 13 -15 -77 127
34 3 -43 118 53 127 42 96
78 73 -84 127 -92 -9 -5 12
-31 -109 83 4 1 25 -52 -127
22 10 -35 45 0 -38 40 127
58 -22 -127 -89 112 18 59 -33
127 18 21 -22 30 -10 86 -60
19 -103 12 101 5 27 -11 -127
107 -127 18 -5 -16 8 -122 88
-127 -36 -124 23 -5 1 -112 58
-25 -49 -7 -114 -127 -38 48 -15
15 8 -39 61 -68 -24 55 127
0 0 0 0 0 0 0 0
-7 -32 -5 11 38 127 47 37
44 3 20 -127 62 43 -59 70
0 0 0 0 0 0 0 0
12 21 127 19 -26 -14 33 34
91 -126 29 30 -3 21 -127 0
-127 -14 29 79 -55 -53 -94 72
33 30 -50 125 -18 -127 -1 60
57 22 127 9 -13 -10 65 10
-82 -22 -127 6 9 11 -102 0
-98 126 -20 -17 8 -14 127 -71
3 -58 -56 85 -7 -62 104 127
14 49 33 30 126 127 -75 -59
-83 -29 -127 2 5 11 -90 1
1 -28 -28 2 -38 127 62 54
-1 -23 -26 41 25 127 58 65
96 33 127 5 -16 -18 90 -3
-78 127 -22 -30 8 -5 98 -48
-40 -94 -21 4 32 -66 127 110
00000000: 1281 32d4 1fef cd17 463e eaa0 0df1 b37f
00000010: 2203 d576 357f 2a60 4e49 ac7f a4f7 fb0c
00000020: e193 5304 0119 cc81 160a dd2d 00da 287f
00000030: 3aea 81a7 7012 3bdf 7f12 15ea 1ef6 56c4
00000040: 1399 0c65 051b f581 6b81 12fb f008 8658
00000050: 81dc 8417 fb01 903a e7cf f98e 81da 30f1
00000060: 0f08 d93d bce8 377f 0000 0000 0000 0000
00000070: f9e0 fb0b 267f 2f25 2c03 1481 3e2b c546
00000080: 0000 0000 0000 0000 0c15 7f13 e6f2 2122
00000090: 5b82 1d1e fd15 8100 81f2 1d4f c9cb a248
000000a0: 211e ce7d ee81 ff3c 3916 7f09 f3f6 410a
000000b0: aeea 8106 090b 9a00 9e7e ecef 08f2 7fb9
000000c0: 03c6 c855 f9c2 687f 0e31 211e 7e7f b5c5
000000d0: ade3 8102 050b a601 01e4 e402 da7f 3e36
000000e0: ffe9 e629 197f 3a41 6021 7f05 f0ee 5afd
000000f0: b27f eae2 08fb 62d0 d8a2 eb04 20be 7f6e

model_1/expanded_conv_project/Conv2D i1 [8, 1, 1, 16]
0 -23 4 1 122 0 -1 1
1 -127 -90 -8 0 120 -4 0
0 -29 1 82 73 15 22 6
0 -4 127 -40 0 28 -10 0
0 2 -3 -11 -57 3 9 3
0 4 -18 0 0 127 -7 0
0 -11 -18 -127 81 24 71 17
0 60 -2 42 0 -3 23 0
0 48 -24 34 -52 33 127 10
-1 -58 15 -13 0 -5 19 0
0 -19 -9 1 -24 -22 -14 17
-1 10 -6 -45 0 -3 127 0
0 19 -2 4 50 -23 -23 -7
1 -110 113 66 0 127 65 0
0 10 -13 127 4 -1 18 9
-1 64 -53 73 0 -10 49 0
00000000: 00e9 0401 7a00 ff01 0181 a6f8 0078 fc00
00000010: 00e3 0152 490f 1606 00fc 7fd8 001c f600
00000020: 0002 fdf5 c703 0903 0004 ee00 007f f900
00000030: 00f5 ee81 5118 4711 003c fe2a 00fd 1700
00000040: 0030 e822 cc21 7f0a ffc6 0ff3 00fb 1300
00000050: 00ed f701 e8ea f211 ff0a fad3 00fd 7f00
00000060: 0013 fe04 32e9 e9f9 0192 7142 007f 4100
00000070: 000a f37f 04ff 1209 ff40 cb49 00f6 3100

model_1/expanded_conv_depthwise_BN/FusedBatchNormV3;model_1/expanded_conv_depthwise/depthwise;model_1/block_5_project/Conv2D i1 [1, 3, 3, 16]
-108 19 -82 -126 39 -67 80 -76
-90 -3 -8 29 -127 5 54 -73
51 25 -127 127 127 -127 127 -127
-85 127 -127 52 -105 5 127 -25
24 -24 90 -2 -72 68 -95 77
-95 -27 4 -16 61 1 -102 -29
-127 127 -22 13 -44 16 -29 14
-28 0 3 -109 -49 8 -30 -14
-78 -41 -57 -14 -7 -25 8 -28
-108 -89 21 -12 -104 -127 1 23
14 1 64 2 3 34 -26 33
-127 6 -2 1 -21 12 -4 43
-115 -72 68 2 -6 39 -40 52
-76 0 0 4 40 2 -27 23
23 -4 31 -2 -27 41 -35 21
-125 -13 0 84 -58 0 -29 -111
21 -7 19 0 4 15 9 22
-115 4 -1 -127 107 3 17 -127
00000000: 9413 ae82 27bd 50b4 a6fd f81d 8105 36b7
00000010: 3319 817f 7f81 7f81 ab7f 8134 9705 7fe7
00000020: 18e8 5afe b844 a14d a1e5 04f0 3d01 9ae3
00000030: 817f ea0d d410 e30e e400 0393 cf08 e2f2
00000040: b2d7 c7f2 f9e7 08e4 94a7 15f4 9881 0117
00000050: 0e01 4002 0322 e621 8106 fe01 eb0c fc2b
00000060: 8db8 4402 fa27 d834 b400 0004 2802 e517
00000070: 17fc 1ffe e529 dd15 83f3 0054 c600 e391
00000080: 15f9 1300 040f 0916 8d04 ff81 6b03 1181

model_1/Conv1/Conv2D i1 [16, 3, 3, 3]
0 0 0 0 0 0 0 0
0 0 0 0 0 0 0 0
0 0 0 0 0 0 0 0
0 0 0 44 -7 27 -7 -27
11 -127 -124 -72 0 -8 -4 -24
-1 -9 0 -34 2 -6 14 -5
-7 4 -6 38 -21 9 28 -6
-9 77 116 1 44 -34 12 9
13 -1 64 127 -28 20 -4 -6
50 -62 23 75 -40 -18 31 -53
15 7 33 3 31 93 21 -3
1 -8 20 35 5 68 127 26
-17 -23 -1 3 0 1 27 27
8 -5 -8 -1 44 78 -6 15
85 -10 -22 3 -6 47 94 51
32 125 31 25 48 -21 59 82
35 52 127 16 -22 24 20 2
3 -121 -9 4 -105 -12 24 -33
0 -37 -127 -6 -39 -114 -5 13
-26 -4 10 -17 0 0 -11 0
13 -12 22 -64 31 45 -88 37
8 -21 7 34 -96 59 61 -127
68 6 -29 15 19 -36 11 12
-45 23 -14 6 -2 -29 15 3
-108 -38 -1 -25 22 0 -13 -6
0 -127 -91 -6 -7 -6 4 -21
33 -6 -13 13 2 -21 27 0
124 127 116 123 127 114 123 125
114 124 126 114 121 124 113 122
124 112 122 124 114 121 125 113
122 124 113 -19 -1 11 -11 -4
2 2 3 -10 95 114 -6 71
00000000: 0000 0000 0000 0000 0000 0000 0000 0000
00000010: 0000 0000 0000 0000 0000 002c f91b f9e5
00000020: 0b81 84b8 00f8 fce8 fff7 00de 02fa 0efb
00000030: f904 fa26 eb09 1cfa f74d 7401 2cde 0c09
00000040: 0dff 407f e414 fcfa 32c2 174b d8ee 1fcb
00000050: 0f07 2103 1f5d 15fd 01f8 1423 0544 7f1a
00000060: efe9 ff03 0001 1b1b 08fb f8ff 2c4e fa0f
00000070: 55f6 ea03 fa2f 5e33 207d 1f19 30eb 3b52
00000080: 2334 7f10 ea18 1402 0387 f704 97f4 18df
00000090: 00db 81fa d98e fb0d e6fc 0aef 0000 f500
000000a0: 0df4 16c0 1f2d a825 08eb 0722 a03b 3d81
000000b0: 4406 e30f 13dc 0b0c d317 f206 fee3 0f03
000000c0: 94da ffe7 1600 f3fa 0081 a5fa f9fa 04eb
000000d0: 21fa f30d 02eb 1b00 7c7f 747b 7f72 7b7d
000000e0: 727c 7e72 797c 717a 7c70 7a7c 7279 7d71
000000f0: 7a7c 71ed ff0b f5fc 0202 03f6 5f72 fa47
